module attributes {torch.debug_module_name = "SimpleNet"} {
  func.func @forward(%arg0: !torch.vtensor<[1,32],f32>) -> !torch.vtensor<[1,16],f32> {
    %int0 = torch.constant.int 0
    %int1 = torch.constant.int 1
    %float1.000000e00 = torch.constant.float 1.000000e+00
    %0 = torch.vtensor.literal(dense<[… > : tensor<16xf32>) : !torch.vtensor<[16],f32>
    %1 = torch.vtensor.literal(dense<"…"> : tensor<16x64xf32>) : !torch.vtensor<[16,64],f32>
    %2 = torch.vtensor.literal(dense<[… > : tensor<64xf32>) : !torch.vtensor<[64],f32>
    %3 = torch.vtensor.literal(dense<"…"> : tensor<64x32xf32>) : !torch.vtensor<[64,32],f32>
    %4 = torch.aten.transpose.int %3, %int0, %int1 : !torch.vtensor<[64,32],f32>, !torch.int, !torch.int -> !torch.vtensor<[32,64],f32>
    %5 = torch.aten.mm %arg0, %4 : !torch.vtensor<[1,32],f32>, !torch.vtensor<[32,64],f32> -> !torch.vtensor<[1,64],f32>
    %6 = torch.aten.add.Tensor %5, %2, %float1.000000e00 : !torch.vtensor<[1,64],f32>, !torch.vtensor<[64],f32>, !torch.float -> !torch.vtensor<[1,64],f32>
    %7 = torch.aten.relu %6 : !torch.vtensor<[1,64],f32> -> !torch.vtensor<[1,64],f32>
    %8 = torch.aten.transpose.int %1, %int0, %int1 : !torch.vtensor<[16,64],f32>, !torch.int, !torch.int -> !torch.vtensor<[64,16],f32>
    %9 = torch.aten.mm %7, %8 : !torch.vtensor<[1,64],f32>, !torch.vtensor<[64,16],f32> -> !torch.vtensor<[1,16],f32>
    %10 = torch.aten.add.Tensor %9, %0, %float1.000000e00 : !torch.vtensor<[1,16],f32>, !torch.vtensor<[16],f32>, !torch.float -> !torch.vtensor<[1,16],f32>
    return %10 : !torch.vtensor<[1,16],f32>
  }
}
