module attributes {llvm.data_layout = "e-m:e-p270:32:32-p271:32:32-p272:64:64-i64:64-f80:128-n8:16:32:64-S128", llvm.target_triple = "x86_64-unknown-linux-gnu"} {
  func.func @main_graph(%arg0: tensor<1x32xf32>) -> tensor<1x16xf32> attributes {input_names = ["x"], output_names = ["71"]} {
    %0 = onnx.Constant dense<146> : tensor<ui8>
    %1 = onnx.Constant dense<0.0193496719> : tensor<f32>
    %2 = "onnx.QuantizeLinear"(%arg0, %1, %0) {axis = 1 : si64, onnx_node_name = "/quant/QuantizeLinear"} : (tensor<1x32xf32>, tensor<f32>, tensor<ui8>) -> tensor<1x32xui8>
    %3 = onnx.Constant dense<0.0193496719> : tensor<f32>
    %4 = onnx.Constant dense<146> : tensor<ui8>
    %5 = "onnx.DequantizeLinear"(%2, %3, %4) {axis = 1 : si64, onnx_node_name = "/fc1/DequantizeLinear"} : (tensor<1x32xui8>, tensor<f32>, tensor<ui8>) -> tensor<1x32xf32>
    %6 = onnx.Constant dense<"…"> : tensor<64x32xi8>
    %7 = onnx.Constant dense<0.0013856095> : tensor<1xf32>
    %8 = onnx.Constant dense<0> : tensor<1xi8>
    %9 = "onnx.DequantizeLinear"(%6, %7, %8) {axis = 1 : si64, onnx_node_name = "/fc1/DequantizeLinear_1"} : (tensor<64x32xi8>, tensor<1xf32>, tensor<1xi8>) -> tensor<64x32xf32>
    %10 = onnx.Constant dense<1> : tensor<1xi64>
    %11 = onnx.ConstantOfShape(%10) {onnx_node_name = "/fc1/ConstantOfShape", value = dense<0> : tensor<1xi32>} : (tensor<1xi64>) -> tensor<1xi32>
    %12 = onnx.Constant dense<[5770, -342, 4029, -1007, 6238, 1356, 4677, 798, -4606, 4641, -703, -4449, -2861, -1403, 5649, 5859, -6078, -5803, 3716, -59, 6204, 3521, -4462, -1495, -135, -3101, 4029, -1704, 2413, 172, 5917, 4554, -39, 6109, -4971, 3936, 3246, -2968, 2366, -1448, -383, -2660, -3804, -2291, 3637, -2013, 4923, 2325, -5471, 3986, -944, -6276, -4064, 597, -6582, -4528, 6318, -6205, 2447, 1081, 1671, -2995, -3748, 4341]> : tensor<64xi32>
    %13 = onnx.Constant dense<2.68110889E-5> : tensor<1xf32>
    %14 = "onnx.DequantizeLinear"(%12, %13, %11) {axis = 1 : si64, onnx_node_name = "/fc1/DequantizeLinear_2"} : (tensor<64xi32>, tensor<1xf32>, tensor<1xi32>) -> tensor<64xf32>
    %15 = "onnx.Gemm"(%5, %9, %14) {alpha = 1.000000e+00 : f32, beta = 1.000000e+00 : f32, onnx_node_name = "/fc1/Gemm", transA = 0 : si64, transB = 1 : si64} : (tensor<1x32xf32>, tensor<64x32xf32>, tensor<64xf32>) -> tensor<1x64xf32>
    %16 = onnx.Constant dense<0.0159176141> : tensor<f32>
    %17 = onnx.Constant dense<136> : tensor<ui8>
    %18 = "onnx.QuantizeLinear"(%15, %16, %17) {axis = 1 : si64, onnx_node_name = "/fc1/QuantizeLinear"} : (tensor<1x64xf32>, tensor<f32>, tensor<ui8>) -> tensor<1x64xui8>
    %19 = onnx.Constant dense<0.0159176141> : tensor<f32>
    %20 = onnx.Constant dense<136> : tensor<ui8>
    %21 = "onnx.DequantizeLinear"(%18, %19, %20) {axis = 1 : si64, onnx_node_name = "/act1/DequantizeLinear"} : (tensor<1x64xui8>, tensor<f32>, tensor<ui8>) -> tensor<1x64xf32>
    %22 = "onnx.Relu"(%21) {onnx_node_name = "/act1/Relu"} : (tensor<1x64xf32>) -> tensor<1x64xf32>
    %23 = "onnx.QuantizeLinear"(%22, %19, %20) {axis = 1 : si64, onnx_node_name = "/act1/QuantizeLinear"} : (tensor<1x64xf32>, tensor<f32>, tensor<ui8>) -> tensor<1x64xui8>
    %24 = onnx.Constant dense<0.0159176141> : tensor<f32>
    %25 = onnx.Constant dense<136> : tensor<ui8>
    %26 = "onnx.DequantizeLinear"(%23, %24, %25) {axis = 1 : si64, onnx_node_name = "/fc2/DequantizeLinear"} : (tensor<1x64xui8>, tensor<f32>, tensor<ui8>) -> tensor<1x64xf32>
    %27 = onnx.Constant dense<"…"> : tensor<16x64xi8>
    %28 = onnx.Constant dense<9.79857519E-4> : tensor<1xf32>
    %29 = onnx.Constant dense<0> : tensor<1xi8>
    %30 = "onnx.DequantizeLinear"(%27, %28, %29) {axis = 1 : si64, onnx_node_name = "/fc2/DequantizeLinear_1"} : (tensor<16x64xi8>, tensor<1xf32>, tensor<1xi8>) -> tensor<16x64xf32>
    %31 = onnx.Constant dense<1> : tensor<1xi64>
    %32 = onnx.ConstantOfShape(%31) {onnx_node_name = "/fc2/ConstantOfShape", value = dense<0> : tensor<1xi32>} : (tensor<1xi64>) -> tensor<1xi32>
    %33 = onnx.Constant dense<[-7194, 3132, -4168, 3464, -6591, -2120, -6698, -2762, -5537, -7337, -5050, -3015, -2522, 1363, 3077, -5213]> : tensor<16xi32>
    %34 = onnx.Constant dense<1.55969938E-5> : tensor<1xf32>
    %35 = "onnx.DequantizeLinear"(%33, %34, %32) {axis = 1 : si64, onnx_node_name = "/fc2/DequantizeLinear_2"} : (tensor<16xi32>, tensor<1xf32>, tensor<1xi32>) -> tensor<16xf32>
    %36 = "onnx.Gemm"(%26, %30, %35) {alpha = 1.000000e+00 : f32, beta = 1.000000e+00 : f32, onnx_node_name = "/fc2/Gemm", transA = 0 : si64, transB = 1 : si64} : (tensor<1x64xf32>, tensor<16x64xf32>, tensor<16xf32>) -> tensor<1x16xf32>
    %37 = onnx.Constant dense<0.00384936598> : tensor<f32>
    %38 = onnx.Constant dense<133> : tensor<ui8>
    %39 = "onnx.QuantizeLinear"(%36, %37, %38) {axis = 1 : si64, onnx_node_name = "/fc2/QuantizeLinear"} : (tensor<1x16xf32>, tensor<f32>, tensor<ui8>) -> tensor<1x16xui8>
    %40 = onnx.Constant dense<0.00384936598> : tensor<f32>
    %41 = onnx.Constant dense<133> : tensor<ui8>
    %42 = "onnx.DequantizeLinear"(%39, %40, %41) {axis = 1 : si64, onnx_node_name = "/dequant/DequantizeLinear"} : (tensor<1x16xui8>, tensor<f32>, tensor<ui8>) -> tensor<1x16xf32>
    return %42 : tensor<1x16xf32>
  }
  "onnx.EntryPoint"() {func = @main_graph} : () -> ()
}
